…
trainable params: 4,194,304 || all params: 6,742,609,920 || trainable%: 0.06220594176090199
prepare all done!
Map (num_proc=2): 100%|██████████| 243/243 [00:03<00:00, 75.25 examples/s]
Map (num_proc=2): 100%|██████████| 243/243 [00:03<00:00, 74.53 examples/s]
Map (num_proc=2): 100%|██████████| 243/243 [00:03<00:00, 75.14 examples/s]
Size of the train set: 3901. Size of the validation set: 173
Size of the train set: 3901. Size of the validation set: 173
Size of the train set: 3901. Size of the validation set: 173
PeftModelForCausalLM(
  (base_model): LoraModel(
    (model): LlamaForCausalLM(
      (model): LlamaModel(
        (embed_tokens): Embedding(32000, 4096)
        (layers): ModuleList(
          (0-31): 32 x LlamaDecoderLayer(
            (self_attn): LlamaAttention(
              (q_proj): Linear(in_features=4096, out_features=4096, bias=False)
              (k_proj): Linear(in_features=4096, out_features=4096, bias=False)
              (v_proj): Linear(in_features=4096, out_features=4096, bias=False)
              (o_proj): lora.Linear(
                (base_layer): Linear(in_features=4096, out_features=4096, bias=False)
                (lora_dropout): ModuleDict(
                  (default): Dropout(p=0.1, inplace=False)
                )
                (lora_A): ModuleDict(
                  (default): Linear(in_features=4096, out_features=16, bias=False)
                )
                (lora_B): ModuleDict(
                  (default): Linear(in_features=16, out_features=4096, bias=False)
                )
                (lora_embedding_A): ParameterDict()
                (lora_embedding_B): ParameterDict()
              )
              (rotary_emb): LlamaRotaryEmbedding()
            )
            (mlp): LlamaMLP(
              (gate_proj): Linear(in_features=4096, out_features=11008, bias=False)
              (up_proj): Linear(in_features=4096, out_features=11008, bias=False)
              (down_proj): Linear(in_features=11008, out_features=4096, bias=False)
              (act_fn): SiLU()
            )
            (input_layernorm): LlamaRMSNorm()
            (post_attention_layernorm): LlamaRMSNorm()
          )
        )
        (norm): LlamaRMSNorm()
      )
      (lm_head): Linear(in_features=4096, out_features=32000, bias=False)
    )
  )
)
trainable params: 4,194,304 || all params: 6,742,609,920 || trainable%: 0.06220594176090199
trainable params: 4,194,304 || all params: 6,742,609,920 || trainable%: 0.06220594176090199
trainable params: 4,194,304 || all params: 6,742,609,920 || trainable%: 0.06220594176090199
prepare all done!
prepare all done!
prepare all done!
mll zero 3
…
