…
trainable params: 20,971,520 || all params: 68,997,619,712 || trainable%: 0.03039455576516454
trainable params: 20,971,520 || all params: 68,997,619,712 || trainable%: 0.03039455576516454
prepare all done!
prepare all done!
prepare all done!
Filter (num_proc=2): 100%|██████████| 972/972 [00:01<00:00, 530.91 examples/s]
mll zero 3
Before packing, Size of the train set: 68. Size of the validation set: 4
mll zero 3
Size of the train set: 46. Size of the validation set: 2
Filter (num_proc=2): 100%|██████████| 972/972 [00:01<00:00, 520.89 examples/s]
PeftModelForCausalLM(
  (base_model): LoraModel(
    (model): LlamaForCausalLM(
      (model): LlamaModel(
        (embed_tokens): Embedding(32000, 8192, padding_idx=0)
        (layers): ModuleList(
          (0-79): 80 x LlamaDecoderLayer(
            (self_attn): LlamaAttention(
              (q_proj): Linear(in_features=8192, out_features=8192, bias=False)
              (k_proj): Linear(in_features=8192, out_features=1024, bias=False)
              (v_proj): Linear(in_features=8192, out_features=1024, bias=False)
              (o_proj): lora.Linear(
                (base_layer): Linear(in_features=8192, out_features=8192, bias=False)
                (lora_dropout): ModuleDict(
                  (default): Dropout(p=0.1, inplace=False)
                )
                (lora_A): ModuleDict(
                  (default): Linear(in_features=8192, out_features=16, bias=False)
                )
                (lora_B): ModuleDict(
                  (default): Linear(in_features=16, out_features=8192, bias=False)
                )
                (lora_embedding_A): ParameterDict()
                (lora_embedding_B): ParameterDict()
              )
              (rotary_emb): LlamaRotaryEmbedding()
            )
            (mlp): LlamaMLP(
              (gate_proj): Linear(in_features=8192, out_features=28672, bias=False)
              (up_proj): Linear(in_features=8192, out_features=28672, bias=False)
              (down_proj): Linear(in_features=28672, out_features=8192, bias=False)
              (act_fn): SiLU()
            )
            (input_layernorm): LlamaRMSNorm()
            (post_attention_layernorm): LlamaRMSNorm()
          )
        )
        (norm): LlamaRMSNorm()
      )
      (lm_head): Linear(in_features=8192, out_features=32000, bias=False)
    )
  )
)
Before packing, Size of the train set: 68. Size of the validation set: 4
trainable params: 20,971,520 || all params: 68,997,619,712 || trainable%: 0.03039455576516454
prepare all done!
Size of the train set: 46. Size of the validation set: 2
mll zero 3
mll zero 3
mll zero 3
trainable params: 20,971,520 || all params: 68,997,619,712 || trainable%: 0.03039455576516454
…
